HELLO_AI/day15_android/mnist_cnn.tflite (tflite, 408808 bytes, 4 tensors)

sequential/dense/BiasAdd/ReadVariableOp f4 [128]
00000000: 0000 0000 0000 0000 0000 0000 f6ae 813a
00000010: 0000 0000 fbce 57bb ee63 acba 0000 0000
00000020: 6fb2 42bb 0000 0000 0000 0000 0000 0000
00000030: 0dd6 a33b 524e 62bb 0000 0000 0000 0000
00000040: 0000 0000 0000 0000 0000 0000 d8bb 5abb
00000050: c08d 9e3b 3a5a a33b 8cd6 ccb9 e3f3 00ba
00000060: d91e 873b f5da 5cbb aa81 1aba 366f 55bb
00000070: 1b53 2b3b 0000 0000 2b86 a23b 0000 0000
00000080: 79be 44bb 1a81 53bb 36aa 42bb e827 593a
00000090: 1087 bfba 2298 d2ba 0000 0000 0000 0000
000000a0: 0000 0000 beb0 42bb 09ad 42bb 0000 0000
000000b0: c93a f03a b5a3 42bb 0000 0000 0000 0000
000000c0: 0000 0000 3ab2 42bb 0000 0000 34c4 4eba
000000d0: 0000 0000 f074 4bbb 0000 0000 0000 0000
000000e0: 0000 0000 0000 0000 ac25 953b 0000 0000
000000f0: 0000 0000 70a6 48bb c5a7 42bb 0000 0000
00000100: c1f0 51bb dda5 a03b 0000 0000 8075 10b8
00000110: 0000 0000 0000 0000 0000 0000 0000 0000
00000120: 0000 0000 d1f6 52bb 1df3 ac3a 0000 0000
00000130: efda 993b 1b86 2e3a 0000 0000 fb1c 8f3b
00000140: 0000 0000 8d14 8d3a 7a41 5dbb 887c 5abb
00000150: 0000 0000 42bc 59bb ab06 573b afbe f339
00000160: 0a55 58bb de1f 60bb b417 9e3b 0000 0000
00000170: 18b3 42bb 73b3 23ba 0000 0000 0000 0000
00000180: daca a03b 0000 0000 f0b1 42bb 0000 0000
00000190: 6221 a13b 0cb2 42bb 0000 0000 71a1 42bb
000001a0: 4bef 5abb 0000 0000 0000 0000 6f2d 51bb
000001b0: 0000 0000 0000 0000 3d5a 50bb 2593 55bb
000001c0: 0000 0000 0000 0000 0000 0000 a831 07ba
000001d0: 0e3d 5cbb 0000 0000 c6e7 953b 0000 0000
000001e0: 0000 0000 fc37 5b3b b2b1 42bb 0000 0000
000001f0: 0755 6fbb 20ad 5bbb 0000 0000 fcb1 42bb
0.0 0.0 0.0 0.0009894061 0.0 -0.0032929766 -0.001315234 0.0
-0.0029708405 0.0 0.0 0.0 0.004999882 -0.0034531546 0.0 0.0
0.0 0.0 0.0 -0.0033376124 0.0048386753 0.004985121 -0.00039069762 -0.00049191545
0.0041235504 -0.0033699844 -0.0005893955 -0.0032567508 0.0026142064 0.0 0.0049598417 0.0
-0.0030020757 -0.0032272995 -0.0029703504 0.00082838396 -0.0014612395 -0.0016067068 0.0 0.0
0.0 -0.0029707397 -0.0029705188 0.0 0.0018328066 -0.0029699628 0.0 0.0
0.0 -0.0029708282 0.0 -0.0007887513 0.0 -0.0031045042 0.0 0.0
0.0 0.0 0.00455161 0.0 0.0 -0.0030616783 -0.002970205 0.0
-0.003203437 0.004902585 0.0 -3.4441706e-05 0.0 0.0 0.0 0.0
0.0 -0.003219057 0.0013195012 0.0 0.0046952884 0.00066575565 0.0 0.0043674684
0.0 0.0010763571 -0.003376095 -0.0033338387 0.0 -0.0033223783 0.003281037 0.00046490642
-0.0033009672 -0.0034198682 0.004824603 0.0 -0.00297088 -0.00062446966 0.0 0.0
0.0049069943 0.0 -0.002970811 0.0 0.0049173096 -0.0029708175 0.0 -0.0029698277
-0.003340679 0.0 0.0 -0.003191795 0.0 0.0 -0.0031792067 -0.0032588926
0.0 0.0 0.0 -0.00051572407 -0.0033605727 0.0 0.0045747487 0.0
0.0 0.0033450117 -0.0029707965 0.0 -0.0036519186 -0.0033519939 0.0 -0.0029708138

sequential/dense_1/BiasAdd/ReadVariableOp f4 [10]
00000000: b742 a43b 283c 353b 0685 91bb 0d0f a3bb
00000010: d02d 98bb 0126 97bb d795 99bb 3fa0 90bb
00000020: 10f1 a2bb ddd8 9fbb
0.005012836 0.0027654264 -0.0044409065 -0.0049761594 -0.004644133 -0.0046126847 -0.0046870518 -0.004413634
-0.0049725845 -0.004878147

sequential/dense/MatMul f4 [128, 784]
00000000: 3ae9 93bd fea4 03bd d6af 5bbd 5649 d8bc
00000010: 71d6 9e3d 1ca8 b73c b885 553c d3ea 46bd
00000020: e02f d23c 009a c1b9 80df 493b 5b63 99bd
00000030: 643d b53c 283e 94bc a0eb 89bb 6080 7b3c
00000040: 0099 51bc 2399 2fbd 9aff e2bc b4f9 de3c
00000050: fcfc 90bc 7dd3 91bd 124a 4a3d 002c d339
00000060: 7030 8abd 3b12 8abd fee4 84bd d2fe a3bd
00000070: b02a 0ebc 48a2 22bc b699 a4bd 7424 dc3c
00000080: c0ac 7d3b c0f1 dcbb a8f0 7ebd f71d 823d
00000090: 7f35 833d 76e0 293d 008d 623c 871d 8f3d
000000a0: 212b 44bd b1c3 873d 3666 71bd 50e9 ba3c
000000b0: eba6 973d 1045 abbb 08c0 afbc 18cd cdbc
000000c0: b8c6 05bc 001c 813c 30bd e43c 6435 333d
000000d0: 9a59 19bd 2ed6 3c3d 0638 633d bebe 643d
000000e0: 68a5 253c b7d0 873d 18a9 0f3d e810 b2bc
000000f0: cc78 93bd c7d3 48bd 205f 5d3b 4b1e 84bd
00000100: 5eff 8abd d20c f1bc d0cd 2f3c b669 d4bc
00000110: d0e1 1a3d 13f9 25bd 6568 0cbd 0072 44ba
00000120: 8872 dbbc c7fb 8a3d 1c39 c53c 50f0 98bb
00000130: 16d3 153d 07cf 88bd f45f db3c d6f3 e0bc
00000140: 762e 87bd 9429 1fbd fa24 793d e40a e2bc
00000150: b240 71bd b5d8 0bbd 14b2 a1bc 3ef4 403d
00000160: 2097 21bb f355 963d 800c 11bb 8733 7ebd
00000170: 2f53 953d d439 dc3c f018 bfbb 8035 46bb
00000180: a07d d83b 0234 4f3d 98a7 2bbc 1884 60bc
00000190: 2095 4cbd aa45 6b3d 7494 febc 7c38 1c3d
000001a0: 7e88 33bd 227b 4c3d 0c49 ba3c c8e3 65bd
000001b0: 4ad6 533d 52fd 6ebd 3a03 ccbc 8070 f2ba
000001c0: c0d7 863c 00f7 0f3d 3098 3b3c 4d0b 8d3d
000001d0: 3ef6 0d3d e4df 5ebd 9e51 f3bc 51e3 97bd
000001e0: c00e b33b c850 dc3c 944b 103d bf7c 9f3d
000001f0: e308 a2bd 4f8a 4bbd e8d0 4f3c 20f0 9c3c
00000200: d0e9 0dbc 182a 273d 121a 6e3d 755a 943d
00000210: c669 95bd ee18 1bbd 4887 51bd 8050 7d3c
00000220: f023 85bc 5133 0abd 00c3 b8b9 f74a a13d
00000230: aade 5dbd d738 3abd 0898 eabc c444 d43c
00000240: f2bc 6f3d 5813 133c ceb1 81bd f26e 9ebd
00000250: d19e 8f3d 147f 7abd 4f81 84bd 6d38 9e3d
00000260: de37 91bd 0041 90b9 f6c6 0bbd 953d 3dbd
00000270: 6339 28bd 35f9 a53d d1c1 70bd b011 293d
00000280: 3630 4abd f337 813d 8286 05bd 55af 9b3d
00000290: b868 11bc 0273 6e3d 667e 373d 0a0c 39bd
000002a0: 84bb a23c f98c a1bd b5a7 9b3d 9aff 403d
000002b0: 6f84 96bd 208d cebc 9c6f 083d 97e1 8fbd
000002c0: ba61 223d 44db bb3c fe9b a4bd 225a 553d
000002d0: 30e8 a63c 9734 46bd 26e4 bebc 6c57 5ebd
000002e0: 6cda 0e3d e505 873d ddc3 21bd 7ae7 99bd
000002f0: afcc 5abd a8b5 233d 6994 873d 99c8 7cbd
00000300: 700b fabb 654c 983d 761b 053d e2bb 5c3d
00000310: baeb 5e3d 3e86 493d bf9f 68bd f3b8 80bd
00000320: ee5f 403d 3053 85bc 8f40 35bd c393 8bbd
00000330: 2ef3 88bd f6a3 fabc 3088 6e3c 8803 61bc
00000340: 68fb 4b3c 0430 5abd 540b 313d 197b a13d
00000350: 68c0 30bc bd65 993d b2cd 7d3d c008 74bb
00000360: b2b8 87bd 90af a73c d103 a53d fc67 16bd
00000370: b497 b0bc 8729 9b3d b415 b13c 98cc 56bc
00000380: b4fb 68bd c2f9 99bd 4035 a13a 4429 2c3d
00000390: 905f cabc 68f4 b63c 1067 8ebb ba57 3b3d
000003a0: 287d c8bc 168f 723d 321a 1d3d a609 723d
000003b0: 4c88 9dbd 3038 cd3b 521a 413d fc59 98bd
000003c0: 5801 8dbc 15bf 8e3d 8226 4c3d 6527 15bd
000003d0: 94ba 81bd 107b 193d 77ae 933d 6f39 a13d
000003e0: dca6 c4bc 618c 5dbd 6e40 fbbc 3325 943d
000003f0: e29d 703d 6571 863d 7258 6e3d 7bcc 96bd
-0.07222219 -0.03213977 -0.053634487 -0.026402157 0.07755745 0.022419028 0.013032369 -0.04856379
0.025657594 -0.00036926568 0.0030803382 -0.07489654 0.022124 -0.018096045 -0.004208997 0.015350431
-0.012792826 -0.042870652 -0.027709771 0.027218677 -0.017698757 -0.07120416 0.049387045 0.0004027784
-0.0674752 -0.067417584 -0.06488989 -0.080075875 -0.00867717 -0.009926386 -0.080371305 0.026872851
0.0038707703 -0.006742686 -0.062241226 0.063533716 0.06406688 0.04147383 0.013827562 0.06988054
-0.047892693 0.06629122 -0.058935367 0.02281633 0.07404884 -0.0052267388 -0.021453872 -0.02512221
-0.008165054 0.015760422 0.027922243 0.04375209 -0.037438966 0.046102695 0.05547335 0.05584597
0.010110237 0.06631606 0.03507337 -0.021736577 -0.072007746 -0.04903009 0.0033778623 -0.064510904
-0.06786989 -0.029425059 0.010730222 -0.025929313 0.037813008 -0.04052074 -0.034279246 -0.0007493794
-0.026788011 0.06786304 0.024075083 -0.0046673194 0.03657826 -0.06680112 0.026779152 -0.02746002
-0.066006586 -0.03885801 0.06082628 -0.027593084 -0.05889959 -0.034142215 -0.019738235 0.047107928
-0.0024656728 0.07340612 -0.0022132695 -0.06206086 0.07291257 0.026883043 -0.00583183 -0.003024429
0.0066067725 0.050586708 -0.010476969 -0.013703369 -0.049946904 0.057439484 -0.031076647 0.038139805
-0.04383134 0.049922116 0.02273991 -0.056125432 0.051718034 -0.058347054 -0.024903882 -0.0018496662
0.0164603 0.035147667 0.011449859 0.06886921 0.034658663 -0.054412737 -0.029702004 -0.07416404
0.005464405 0.026893988 0.035228327 0.07787465 -0.07911851 -0.04969245 0.0126840845 0.01915747
-0.008661702 0.040811628 0.05813033 0.07243816 -0.07295565 -0.03786557 -0.051154405 0.015461087
-0.016252488 -0.033740345 -0.000352405 0.078756265 -0.054167427 -0.045464363 -0.028636947 0.025911696
0.0585298 0.00897678 -0.06332742 -0.07736005 0.07012714 -0.061156347 -0.06469976 0.07725606
-0.07090734 -0.0002751425 -0.03412529 -0.046201307 -0.041070353 0.08104173 -0.058778588 0.041276634
-0.049362384 0.063094996 -0.03259898 0.07601801 -0.008875065 0.05821515 0.044798277 -0.045177497
0.019864805 -0.078882165 0.07600347 0.04711876 -0.073494785 -0.025213778 0.033309564 -0.0702545
0.03964398 0.022931702 -0.08037566 0.05208791 0.020374388 -0.048389997 -0.023302149 -0.05428259
0.034876272 0.06592921 -0.03949343 -0.07514854 -0.053417858 0.039968163 0.06620104 -0.061714742
-0.007630758 0.07436446 0.032496892 0.053890117 0.054424025 0.04920029 -0.05679297 -0.06285276
0.046966486 -0.016275018 -0.04425102 -0.06815293 -0.06687008 -0.03059576 0.014558837 -0.013733752
0.012450077 -0.053268448 0.043223694 0.07884807 -0.010788061 0.07490108 0.061963744 -0.003723666
-0.06627025 0.020469457 0.080573685 -0.03672026 -0.021556713 0.0757628 0.021616794 -0.013110302
-0.056880668 -0.07518341 0.0012299195 0.04203154 -0.02470377 0.022333339 -0.004345782 0.04573796
-0.024473742 0.05921849 0.03835506 0.059091233 -0.07692012 0.0062628016 0.04714424 -0.07439038
-0.017212555 0.0697004 0.04984141 -0.036414523 -0.06334415 0.037470877 0.07211011 0.07872283
-0.024005346 -0.054088954 -0.03067037 0.07233658 0.05874432 0.06564597 0.058189817 -0.0736322

sequential/dense_1/MatMul f4 [10, 128]
00000000: 1967 2b3e 5c58 5f3d 9f23 143e 741f 09be
00000010: b041 523c 7f44 e0bd 1c1e d7bd a07c 00be
00000020: ce43 c0bc eef1 e13d 1983 2e3e 01ac 2d3e
00000030: 8499 413d 3e1f 4d3e 1a09 fc3d ea7f 17be
00000040: 9098 3ebc 4e5a f13d 1681 a73d 477a be3c
00000050: 4de2 d93d a1e6 053e b48a 17be 6a82 27be
00000060: 3ad7 2a3d 7ea1 363e 7344 37be bc10 17be
00000070: 696b c0bd e0e1 933c 2203 2b3e 2c4a 4fbe
00000080: 0c74 15bd 0ce9 03be e1bf fe3d 9c2e 42be
00000090: 1d47 3a3d b2d0 09be 3ac4 97bd f59c 3e3e
000000a0: 8034 a63c 6686 7e3d c370 cf3d f253 c3bd
000000b0: 45e9 71bd 4ea5 183e cfcb 4cbe fa62 45be
000000c0: 6f46 1c3e 82af 28be 92d0 51be 75cd 45be
000000d0: b505 033e 8f3d fcbc 9473 24bd 2474 49be
000000e0: 1d4a 193e 6aa2 26be 4fde a7bd a89e b8bd
000000f0: e0c5 ec3c 7d43 05be 2814 293e a001 33bd
00000100: 74a0 34be b27b 053e d0c7 743c e141 99bd
00000110: 074f 163e 6de2 26be b67c 9e3d 9214 b33d
00000120: 552d 52be 916b 8dbd 2658 f5bc 0626 bc3d
00000130: de3c b33d 7445 e2bd 5747 f9bd 6434 253d
00000140: 5fe5 223e 019a 71bd 301b fa3d df71 893b
00000150: 5a05 48be 620b b3bc a350 25bd 41c2 fbbd
00000160: ea11 3a3c 122c aabd 4936 303e 387e c0bc
00000170: cb71 153d ef1e 22be 7ff6 31be d858 e1bc
00000180: 596e 043e 4559 503e e0a3 bfbb 0055 9fba
00000190: 004f 343e 92f6 2f3e 0823 3ebd 6779 39be
000001a0: b557 9b3d e681 843d b138 453e ce56 85bc
000001b0: ea18 d13d 1666 a83d ec36 29be 8f02 d1bd
000001c0: 878c 3a3e 3a8c 0fbe f2cb a63d 3886 afbc
000001d0: 99b7 e2bc 09b6 cdbd 38d6 4b3e dc11 2dbe
000001e0: 384f 00bd 87c9 5bbd 7f25 b0bd 51a1 083e
000001f0: 1e74 4b3e c63b 363d d1e3 303e fcdb 0e3e
00000200: c002 97bd dabe b33d 8ef2 37be 76ec e43d
00000210: d028 543c 1a3a 03be f829 29bd f878 ab3c
00000220: 5d53 4dbe c491 51be b3fb 093e b6a4 ac3d
00000230: a927 983c 005b d7bd af0b 013e 35bf 21be
00000240: 8343 2d3e 7ea8 c23d 605f 973c 7ebe d4bd
00000250: 4892 513e 430c ff3d 724e 173e 2864 ef3d
00000260: 9395 3b3e 9c7f 86bd 1a7a 103e 9dfe 11be
00000270: 1dcc 3a3d 2f61 c3bd 0a3a 403e 0a8c c4bd
00000280: f1b8 d03c 4517 88bd c1f2 143c 868c 263e
00000290: 2629 043d f1bd 1a3d 9357 113e 00ad 0dbb
000002a0: 789e ec3c f3b5 4fbd 91e9 cfbc c021 1c3b
000002b0: b2ce 2f3d 3e77 e4bd 2b59 0fbe 6d3b 19be
000002c0: d28b 95bd 8310 0abe 621c 9f3d 4c99 ca3d
000002d0: 029a c23d ac22 b83c 6c2d 353d af1b 0c3e
000002e0: 515b d0bd 0731 4c3e 044e 60bd 84a8 20be
000002f0: 3262 ad3d 2b68 26bd c7c0 2cbd b0bc 3bbc
00000300: a16a aabd c42c d23c 6032 45bd 5d76 cf3d
00000310: eca5 2f3d 2ec6 c83d c6ef 2bbe 0c39 443d
00000320: 6cb9 3c3d 6ec5 ddbc f5ac 1c3e 1253 25be
00000330: 9056 013e 6916 193e 17a9 443e 9bfd d13d
00000340: 606a 343c f7c0 503e 788a 95bd 15e1 e5bd
00000350: 61be d6bd 1c64 50be fb3d 463d 1c14 d7bc
00000360: 95d2 1abe 1dbb a9bd 04e1 f73c b4f9 523d
00000370: 2c65 40be b717 cf3d 46d2 ec3d 8aea c93d
00000380: 3e44 9f3d 2860 55be b430 dabd efe3 0e3e
00000390: a331 673d 00cc 21be f71d e0bd c1ad 5dbd
000003a0: 8287 4fbe 249c 723d fde3 05be 6cf7 e5bc
000003b0: ec7b 233d fb90 023e bb15 c83c a5ac fdbd
000003c0: 80b4 3cbb 8c6b 7c3d be36 3dbe e8ba 2c3e
000003d0: 0a70 72bd 7498 54bd 6066 aa3d 130d eebd
000003e0: 02a0 db3d 33f7 073e e7c9 a6bd 807d 1b3b
000003f0: 7e71 0d3d fd43 d2bd c3d8 4c3e 0ced 39be
0.16738547 0.054527625 0.14466713 -0.13390905 0.012833044 -0.109505646 -0.1050379 -0.1254754
-0.023469832 0.110324726 0.17042197 0.16960146 0.047265545 0.20031449 0.123064235 -0.14794889
-0.011633053 0.117848024 0.08178918 0.023251666 0.106388666 0.13076259 -0.14799005 -0.16358343
0.041709162 0.17835042 -0.17897205 -0.14752477 -0.09395487 0.018052042 0.16700414 -0.20243138
-0.036487624 -0.12881869 0.12438942 -0.18963093 0.045477975 -0.13458517 -0.07410474 0.18614562
0.020288706 0.06213989 0.101289295 -0.09537496 -0.059060354 0.14906809 -0.19999622 -0.19276038
0.15261243 -0.16473201 -0.2048972 -0.19316657 0.12795146 -0.030791072 -0.040149286 -0.1967321
0.14969678 -0.16272894 -0.08196699 -0.09014636 0.028902948 -0.13014026 0.16511595 -0.04370272
-0.17639333 0.13035467 0.014940217 -0.074832685 0.14678584 -0.16297312 0.077386305 0.08744158
-0.20525105 -0.06905282 -0.029949259 0.0918694 0.08751844 -0.110484034 -0.1217181 0.040333167
0.1590781 -0.05898476 0.12212217 0.0041944827 -0.19533291 -0.021856014 -0.040360104 -0.1229291
0.01135681 -0.08309187 0.17208208 -0.023497686 0.036485475 -0.15832113 -0.17379187 -0.027508184
0.1293272 0.20346554 -0.005848393 -0.0012156069 0.17608261 0.17183903 -0.046420127 -0.18112718
0.07585088 0.06470089 0.19259907 -0.016276743 0.1020983 0.08222596 -0.16524857 -0.10205566
0.1821767 -0.14018336 0.08144368 -0.021426305 -0.027675437 -0.10044486 0.19905937 -0.16901344
-0.03132555 -0.05365899 -0.08600902 0.13342787 0.19868514 0.0444906 0.17274405 0.13951105
-0.073735714 0.087766364 -0.17963621 0.11177914 0.012949184 -0.12815133 -0.04129979 0.020931706
-0.20051332 -0.20465761 0.13474922 0.084298536 0.018573599 -0.10515404 0.12602113 -0.15795596
0.16920285 0.095047936 0.018478096 -0.10387896 0.20465958 0.124535106 0.14776018 0.11689025
0.18318777 -0.06567308 0.14109078 -0.14257284 0.045604814 -0.09540021 0.1877214 -0.09597023
0.025478812 -0.06645063 0.00909108 0.16264543 0.032265805 0.0377788 0.14193563 -0.0021618009
0.028884158 -0.05071063 -0.025379928 0.0023823828 0.04292173 -0.11155556 -0.13998859 -0.14964075
-0.07302059 -0.13482861 0.077690855 0.0989252 0.09502031 0.02247747 0.04423277 0.13682435
-0.10173667 0.19940577 -0.0547619 -0.15689284 0.08465995 -0.040626686 -0.042176034 -0.011458561
-0.08321119 0.025656112 -0.048143744 0.10129998 0.042882845 0.09803425 -0.16790685 0.047905967
0.04607527 -0.02707168 0.15300353 -0.1614497 0.12630677 0.14949955 0.19205128 0.102534495
0.01101169 0.2038611 -0.073018014 -0.112245716 -0.10485531 -0.20350689 0.048398953 -0.026254706
-0.15119393 -0.08287642 0.030258663 0.051507667 -0.18788594 0.10111945 0.11563544 0.09859188
0.07776688 -0.20837462 -0.10653821 0.13954137 0.05644382 -0.15800476 -0.10943215 -0.054120783
-0.20266536 0.05923094 -0.13075252 -0.028072082 0.039913103 0.12750618 0.024424424 -0.12386445
-0.002879411 0.061626002 -0.18477914 0.16868174 -0.05918888 -0.051903203 0.08320308 -0.116235875
0.107238784 0.13277893 -0.081439786 0.0023725927 0.034532063 -0.10266874 0.20004563 -0.18156832
