HELLO_AI/day15_android/mnist_cnn_gawi.tflite (tflite, 71768 bytes, 6 tensors)

sequential/dense/BiasAdd/ReadVariableOp f4 [128]
00000000: 2318 643c b2d6 16bc 0000 0000 60f7 0dbc
00000010: 5d8a 603c cb3d acbb 95a7 993b 7399 6e3c
00000020: ebce f1bb 90f4 3f3c 7d79 6c3c f46d 47bc
00000030: 46b4 8e3b bde4 753c b40f 24bc e39f ac3a
00000040: 2e71 733c bbda 753c 9953 45bc 7a9d ea3b
00000050: 116b 4dbc f2a8 093c d0d6 6d3c c10f 263c
00000060: d123 513c 5bbc ea3b 7f28 2abc 0000 0000
00000070: a414 e83b 0000 0000 f6fb 763c f7a6 5c3c
00000080: 187b 3e3c 9695 90bb a34f 663c a10a 93bb
00000090: 4932 6a3c 0000 0000 aaf9 b939 449d 763c
000000a0: 9275 6b3c 0000 0000 c270 253c 0000 0000
000000b0: 8c75 0f3c 4145 793c c154 f7bb 96ab 783c
000000c0: 36e6 3abb 6fa5 5f3c fbd4 26bc ef21 703c
000000d0: a06d 3fbc 6530 7b3c da2a 703c c337 733c
000000e0: eab4 57bb ca99 873b cb07 763c 7582 4cbc
000000f0: bd5b 743c 952a 633c 6903 733c f60c 3f3c
00000100: 4fc7 323c 8e1d c93b ba2c 1fbc 9122 633c
00000110: 37a1 b1bb fae8 703c c57c 50bc 4bfe 64ba
00000120: 4232 69bc 161a c43b d142 333a 2aa2 613c
00000130: 0000 0000 8722 723c 75a5 5fbc 382a 703c
00000140: 3d2a 783c 12e4 c5bb bd8a 643c 934e 663c
00000150: 5593 733c 426a 6d3c 0000 0000 3984 90bb
00000160: 50c6 bcba 6bdc 42bc 3575 1dbc c692 c73b
00000170: 0000 0000 d1c7 733c bb6f c93a b637 6cbc
00000180: 0000 0000 a2c8 24bc b3b9 1dbb 4cb9 823b
00000190: 4903 633c a856 58bc 1bf6 533c 1ab6 6f3c
000001a0: f663 673c f65f 733c 0000 0000 7855 283a
000001b0: 5fda 613c 0000 0000 b546 5f3c dd22 0ebb
000001c0: 4f07 0cbc 145b 703c fa8b 013c e347 763c
000001d0: a676 573c 759e fbbb 4452 373c 301c 173c
000001e0: 520c ccbb b574 063c e114 6a3c 4294 7a3c
000001f0: b84d 753c f0a1 403c 9caf 6e3c cd02 283c
0.01392177 -0.009206461 0.0 -0.008664936 0.013704863 -0.0052563897 0.004689167 0.014562952
-0.007379403 0.011716023 0.014433262 -0.012172211 0.0043549864 0.015008149 -0.01001351 0.0013170209
0.014858527 0.015005763 -0.012043857 0.007159886 -0.012537734 0.008402096 0.014516547 0.010135592
0.012764887 0.007163567 -0.010385632 0.0 0.0070825387 0.0 0.015074721 0.013467542
0.0116260275 -0.0044123633 0.014057073 -0.004487351 0.0142942155 0.0 0.00035471964 0.0150521435
0.014371293 0.0 0.010097684 0.0 0.008756053 0.015214265 -0.0075479452 0.015177628
-0.0028518564 0.013650282 -0.010182614 0.014656528 -0.0116838515 0.015331362 0.014658654 0.014844838
-0.003291423 0.004138206 0.015016506 -0.012482275 0.01491445 0.013865133 0.014832356 0.011660805
0.010911777 0.0061375564 -0.0097152535 0.013863222 -0.0054208296 0.014703983 -0.01272506 -0.00087354024
-0.014233174 0.005984555 0.00068382645 0.013771573 0.0 0.01477874 -0.013650288 0.014658503
0.015146789 -0.006039151 0.013949093 0.0140568195 0.01486667 0.014490666 0.0 -0.0044102934
-0.0014402363 -0.011893372 -0.009610464 0.006090495 0.0 0.014879183 0.0015368381 -0.014417579
0.0 -0.0100576 -0.0024066984 0.0039893743 0.013855764 -0.013204254 0.012937094 0.014630819
0.014122954 0.014854422 0.0 0.0006421427 0.013784974 0.0 0.013627698 -0.002168826
-0.008546664 0.014670152 0.007906908 0.015031788 0.013150847 -0.0076788017 0.011189047 0.009223029
-0.0062270546 0.008206536 0.0142872045 0.0152941365 0.014972143 0.011757359 0.014568236 0.010254574

sequential/dense_2/BiasAdd/ReadVariableOp f4 [3]
00000000: 1c43 9abb 95f7 7dbc 7ca5 6c3c
-0.004707707 -0.015500923 0.014443751

sequential/dense_1/BiasAdd/ReadVariableOp f4 [128]
00000000: 0000 0000 251c 663c 0da0 0d3c 5672 64bc
00000010: f4be fa3b 8b9c 693c 2df5 253c e315 603c
00000020: 0000 0000 80cd 2bbc d2bb 733c d15a 673c
00000030: 6cb3 363c 2b2c c53b 4547 653c 9b6e 723c
00000040: 8055 dab7 0000 0000 dab3 6b3c 0000 0000
00000050: f788 9cbb ee51 debb 9185 7a3c 0000 0000
00000060: 0000 0000 39d9 6c3c 0000 0000 2561 18bc
00000070: 0000 0000 a006 0dbb ccec 7bba beca 43bc
00000080: 0000 0000 fc9d 23bc 94ea 9fbb d099 653c
00000090: c534 703c a1d6 e7bb 2fea 723c 0000 0000
000000a0: 51bf 453c 0000 0000 46ff cd3a 0000 0000
000000b0: 508e 08bc 4423 07bc 444e 0e3c fbbe 543c
000000c0: 4cc3 343c d3b9 53bc b2ee 9fbb 8512 733c
000000d0: 2f37 0d3b 4eed 9fbb b737 4b3c 0000 0000
000000e0: 0f72 483c 13a0 4cbb 0eee 69bc e22f 453c
000000f0: 786e 71ba 9436 353c c2d2 093c 0000 0000
00000100: 05ec 9fbb 0000 0000 34bb 12bc 5ea5 90bb
00000110: edf4 6ebc 0000 0000 525e 62bc 65b5 d13b
00000120: 8a28 48bc 0000 0000 3239 623c 8606 28bc
00000130: 9957 b3bb 4b88 753c 9bcf 4abc 3fe8 233c
00000140: 7fea 483c 19da 793c 0000 0000 fea5 9db9
00000150: aad5 313c 6669 61bc 5639 8dbb 0000 0000
00000160: 2669 793c 2648 4cbc 71cb 7a3c c6f0 48bc
00000170: 477f 663c b081 773c 2e25 69bc 6d24 483a
00000180: 6903 753c b21d 33bc c918 6cbc beb9 0fbc
00000190: 183e 953b 0000 0000 d0c6 4d3c 30e9 52bc
000001a0: b461 6abc 0974 593c 80e2 e13b 5a68 f93a
000001b0: 570d 753c 0000 0000 2c3b 763c a330 30bc
000001c0: 4ede 093c 0000 0000 05a8 763c 3deb 13bc
000001d0: 58cc 143c effb 873b cddb 71bb df57 733c
000001e0: d587 41bc 06e8 703c ca35 19bc a0fc 05bc
000001f0: 3677 003c b2e8 473c 1c2d 12bc 8b63 113c
0.0 0.014044796 0.008644116 -0.013943275 0.007652158 0.014258514 0.010129255 0.013677093
0.0 -0.010486007 0.014876323 0.014120773 0.011151176 0.006017228 0.013994043 0.014796878
-2.602744e-05 0.0 0.014386142 0.0 -0.0047770697 -0.006784669 0.015290634 0.0
0.0 0.014456087 0.0 -0.009300505 0.0 -0.0021518841 -0.00096101756 -0.011950193
0.0 -0.009986397 -0.004880259 0.014013723 0.014661019 -0.0070751463 0.0148263415 0.0
0.012069539 0.0 0.0015716336 0.0 -0.008334711 -0.008248154 0.008685652 0.012984986
0.0110328905 -0.012922722 -0.0048807496 0.014835958 0.0021547785 -0.004880584 0.01240342 0.0
0.012234225 -0.0031223341 -0.014277948 0.012035342 -0.00092098815 0.011060376 0.008412065 0.0
-0.0048804306 0.0 -0.0089557655 -0.0044142446 -0.014584762 0.0 -0.013816433 0.0063997977
-0.0122166965 0.0 0.013807582 -0.010255462 -0.005473089 0.014986108 -0.012378599 0.010004102
0.0122629395 0.015249752 0.0 -0.00030069047 0.010854164 -0.013758039 -0.0043098135 0.0
0.015222823 -0.012468373 0.015307293 -0.012264436 0.014068431 0.0151066035 -0.014230056 0.00076348224
0.014954426 -0.010932373 -0.014410206 -0.008772312 0.0045545213 0.0 0.012559608 -0.012872979
-0.014305521 0.013272294 0.006893456 0.0019028292 0.014956794 0.0 0.015028756 -0.010753783
0.008414818 0.0 0.015054707 -0.009028253 0.0090819225 0.004149906 -0.0036904693 0.014852493
-0.01181217 0.014703756 -0.009351203 -0.008177906 0.007840922 0.012201475 -0.008921888 0.008873831

sequential/dense/MatMul f4 [128, 3]
00000000: 4956 1dbe a5f5 803d 430e ce3d d0cb bfbc
00000010: beb0 07be ceb7 473e 2598 42be 0e8a 31be
00000020: e2e3 dcbd a34c 3a3e 5491 1e3d 9299 593e
00000030: 0df9 673c 9803 c93d 9865 babc 52b2 05be
00000040: 5a4e d63d e609 babd 39dd 18be e23a 613c
00000050: 365a 2d3e ca0b 503e b6c5 093e 5a61 11be
00000060: 7109 1dbe a487 123d be92 063e 5c89 0abd
00000070: ea52 a4bd 17ba d83c 1942 c0bd 0040 72bc
00000080: ce1d 553e ee1e 0abe 31eb 013e 3547 41be
00000090: 7d32 813d 64e0 643e 283c fb3d 0769 203e
000000a0: 2865 a8bd 3eff fb3c b342 323e e4fd 8cbd
000000b0: fa48 bcbd a87a d8bc 08de dcba c7f0 783d
000000c0: 2788 903d 5e5d 66bc f057 f93d d602 703d
000000d0: bb00 25be 6538 923d b06a a93d 32bc ba3c
000000e0: 199f 273e fd4a 31be 4515 833d 4242 0cbe
000000f0: 0576 2abe 3582 013d bb7b 9c3d 0629 243e
00000100: a8f1 09be 3827 f2bd 3b94 eb3d 677f e83d
00000110: fc5b 48bc ed4a 543e ebc6 1e3e cb55 be3d
00000120: 6dd1 b7bd 4c78 d53d 620a 30be 73d2 793d
00000130: 000b 8d3d 962c 253b 75d8 3dbe be7b d13d
00000140: 9eea 26be 3017 0dbc 94e4 1fbe ae96 90bd
00000150: b0ff 9dbc f426 ba3d 649f ab3d 35d0 f4bd
00000160: c04a 15bd 045a 06be 9415 4ebe d485 67bc
00000170: da80 6b3d e33b f03d f0df 55be 4d05 633e
00000180: d0c6 073e 82f4 243e 5941 c4bd 8ce4 e53d
00000190: daf3 83bd c664 59be 70a3 1dbe 4afe 92bd
000001a0: 39b1 143d e0d0 bc3c 615a 083e 9a0e 423e
000001b0: 5f50 42be eaa5 a53c 5985 603d 690f 55be
000001c0: 4455 bfbd f09b 13bd 4d38 f93d 4169 923d
000001d0: 0580 e23c a505 433e 2955 23be f88b a63d
000001e0: 28cb aabc 1e1d 563e 6ba4 0e3e 5a32 cbbd
000001f0: 00f4 6eb9 bf6a 07be aeb5 cdbb ae2e 243e
00000200: 9025 aebc c4d1 49be 030c 17be b2fe 0dbe
00000210: 6a55 86bd 5fd5 183e 3cc4 8a3d e2a3 8e3d
00000220: 3f2a bf3d 5d8e c8bd 0d9e 333e 88fb 913d
00000230: 0c7a 2cbe 64ee 08be 522a 543e 403f 1ebe
00000240: 97a7 30be 7174 0c3e 0285 17be 742d 343e
00000250: d034 74bc cefc 533e 6530 d3bd 00de 7f3d
00000260: 7378 153e 628d 43bc f7c4 c63d ee4a 5abc
00000270: 8037 503b 566c a5bd 0d3f 3bbe e6a3 b43d
00000280: 4ca4 5abd 60b0 38bd 6f1d e6bd b1b0 fe3d
00000290: b278 223c 3be2 3c3e f875 52bd c084 ee3d
000002a0: 3fc8 a53a a107 353e 89d3 22be dfca 0b3c
000002b0: def8 d53c d8ec 1ebe 42cd 633e d69d 0d3e
000002c0: 12a0 b1bd fbad b9bd 9f18 443e 64cf 093e
000002d0: b564 4b3e b258 c03d f9fe eabd f87a 33bd
000002e0: 3aa5 0e3e 8d80 fe3d 3947 503e 83c0 c9bd
000002f0: 93ea b43d 6171 8c3d 1923 083e 4212 b5bd
00000300: fb64 df3d 832b 18be de98 c23d b07f 0cbb
00000310: b4d8 323d 1802 3f3e 807a 613d cb43 4dbe
00000320: e0df 03bc b9ed 103e f617 413e 9c92 89bd
00000330: 8872 27be ccd1 20be 0f8e 883d ca6b fa3d
00000340: 64a6 9dbd 021a aebd c686 8f3d d63d 1bbe
00000350: d00f 3ebc 39d5 6bbb 1141 2b3d 815d 983b
00000360: 4af5 283d a23a a3bd ad78 253e 37d4 cb3d
00000370: bdf4 593e 80a9 25bd 789a a4bd dccf ea3d
00000380: 0279 3ebe 95e4 a33d cffe 533e 6083 38be
00000390: 7d64 05be 0ca6 14be d123 c4bd 7e66 05be
000003a0: d373 b13d 5bd1 40be 8e7e d33d c039 33bd
000003b0: dc89 05be c54c 0bbe 382f f0bd c2e4 653e
000003c0: f899 4b3e 79bc c3bd 202c bdbc 61bd f43d
000003d0: a67f f63b b440 c63d 6f34 babd 6c88 90bd
000003e0: 38fa 213e e582 a63d 4dad eb3c b686 b3bd
000003f0: 7fd7 453e fcb1 24bd 0092 2cbe a615 09be
-0.15364946 0.06296853 0.10061314 -0.023412615 -0.13251016 0.1950371 -0.19003351 -0.1733782
-0.10785653 0.18193297 0.038712814 0.21249989 0.014158499 0.098151386 -0.022753522 -0.13056305
0.10464163 -0.09083919 -0.1492814 0.013746949 0.16928944 0.20316997 0.13454327 -0.14197293
-0.15335633 0.03577389 0.13141915 -0.033822402 -0.08023627 0.026455922 -0.09387607 -0.014785767
0.20812151 -0.13488361 0.12687375 -0.1887482 0.06308458 0.22351223 0.12267333 0.15665065
-0.08222419 0.030761357 0.17408256 -0.06884363 -0.09193607 -0.026425675 -0.0016850838 0.0607765
0.07057219 -0.014060346 0.12174976 0.058596455 -0.1611356 0.07139663 0.08272302 0.022794817
0.16369285 -0.17313762 0.06400541 -0.1369715 -0.16646583 0.031618316 0.07640787 0.16031274
-0.13471091 -0.11823887 0.11502882 0.11352425 -0.012228962 0.20731707 0.15505569 0.092937075
-0.08975492 0.104233354 -0.1719146 0.060991716 0.06886864 0.0025203577 -0.18539603 0.1022868
-0.16300437 -0.008611485 -0.1561454 -0.0705999 -0.01928696 0.09089461 0.08380011 -0.11953775
-0.03644824 -0.13120276 -0.20125419 -0.014131028 0.05749593 0.117301725 -0.20886207 0.22169991
0.13259435 0.16108897 -0.095827766 0.112252325 -0.06442995 -0.21229848 -0.15394378 -0.07177408
0.036301825 0.023048818 0.13315727 0.18950883 -0.18975972 0.020220716 0.05481467 -0.2080666
-0.09342435 -0.036037385 0.12168942 0.07148982 0.027648935 0.19045122 -0.15950455 0.08132166
-0.020848826 0.20909545 0.13929908 -0.09921713 -0.00022788346 -0.13224314 -0.0062777614 0.16033432
-0.021258146 -0.19708925 -0.14750676 -0.1386669 -0.0655926 0.14925145 0.0677571 0.06964852
0.0933423 -0.09792779 0.1754076 0.07128054 -0.16843432 -0.13372189 0.20719269 -0.15453815
-0.1725143 0.13716294 -0.14796832 0.17595464 -0.01490517 0.20701906 -0.10311965 0.062467575
0.14596729 -0.011935564 0.09705537 -0.013323529 0.0031771362 -0.08077304 -0.1828577 0.08820324
-0.053379342 -0.04509008 -0.11236083 0.12436045 0.009916471 0.18445675 -0.051382035 0.11646414
0.0012648179 0.17678691 -0.15901007 0.008532255 0.026119646 -0.15520036 0.22246268 0.13829741
-0.08673109 -0.09066387 0.19150017 0.1345802 0.19862635 0.09391917 -0.114744134 -0.043818444
0.13930216 0.12426863 0.2033967 -0.09851172 0.08833804 0.06857563 0.13294639 -0.08841373
0.10907932 -0.14860348 0.09501813 -0.0021438412 0.043663695 0.18653142 0.055048466 -0.20045392
-0.008048981 0.14153184 0.18856797 -0.06717417 -0.16352284 -0.15705031 0.066677205 0.122275904
-0.07697752 -0.08501054 0.07008128 -0.15160307 -0.01160045 -0.0035985245 0.0418101 0.0046498184
0.04124955 -0.07970168 0.16159315 0.09952586 0.21284766 -0.04044485 -0.08037275 0.11465427
-0.18600848 0.08002583 0.2070267 -0.18018866 -0.13026614 -0.14516467 -0.09577144 -0.13027379
0.0866467 -0.18829863 0.10326873 -0.043756247 -0.1304087 -0.13603504 -0.11727756 0.22450545
0.19882953 -0.09557433 -0.02309233 0.11950184 0.007522541 0.0968031 -0.09092032 -0.070572704
0.15818107 0.08130435 0.02876916 -0.087659284 0.19320486 -0.0402088 -0.1685257 -0.13387164

sequential/dense_1/MatMul f4 [128, 128]
00000000: c6ba f2bd a4ee 2d3d 01de f4bd 00e6 843a
00000010: a0b0 e6bb a7d4 e9bd 581f f2bd 9e89 18bd
00000020: d374 e8bd 588c 563d c81a bd3d a2e6 863d
00000030: f682 69bd 0080 c5b8 b213 46bd 1401 67bd
00000040: 4a4e 4ebd 588c b9bc f225 f33d 5617 56bd
00000050: 101a cc3c 40e7 61bc 2e6b f93d ea19 50bd
00000060: 764a a7bd 1086 11be eec4 d3bd a6aa 20bd
00000070: cd3f a9bd db62 1b3e c4ac 9c3d 6067 00bc
00000080: 612c f6bd b472 12be 6086 ae3b e0da b03b
00000090: 1c2f 5a3d 2072 c4bb f8db fa3c 60ac 7abc
000000a0: b660 eabd 04c6 3c3d 185f 813d a093 31bd
000000b0: 8c8d 263d 5862 b9bc 5e79 e53d dc9f a83d
000000c0: ec03 0fbe 6d81 9ebd f8b5 453d fb9a 1a3e
000000d0: 405b 00bb 1962 023e 7050 5e3d 86cd 9fbd
000000e0: c00a 23bb 68be 193d 0ac5 f1bd f00b 693c
000000f0: 7d5d 193e 2ec2 5dbd c07a 62bb a461 913d
00000100: 1e4c 803d afcd b5bd b157 0bbe 0cc5 7b3d
00000110: dc7b a6bd c072 843b 23d1 18be 1c32 583d
00000120: c0fd 28bb 0ceb 353d 649a 063d 90e8 2a3d
00000130: b09d b03c 0f73 0b3e 2e60 13be 8346 f9bd
00000140: 0080 6d37 f8c7 bfbc 04c1 dfbd 0277 07be
00000150: d75c 0ebe 7a58 d4bd ee32 fc3d e279 94bd
00000160: 5c51 1c3d 0887 dbbc a0c8 8e3d 92b7 e63d
00000170: 00a7 613d 6fe6 15be d04e b33c 3ddb 15be
00000180: 1a61 d43d e7db 00be 48cd ecbc b205 f7bd
00000190: 2293 d6bd 166d 0bbe 8f4f d8bd 20a8 47bd
000001a0: 54dd cfbd 8079 ca3c 1cc2 833d f27e 5abd
000001b0: 8e3f 18bd 4c1b 39bd 1a80 31bd eb81 c2bd
000001c0: 4202 c2bd 38f9 983c 70f1 633d d62c e03d
000001d0: 3855 d2bd a083 243c f215 55bd 26ec 67bd
000001e0: ce2d 10be c618 a43d 186a ddbd 1252 9dbd
000001f0: 14dd 733d a084 513d c7dd fcbd 5c65 7fbd
00000200: 5a92 98bd dc3c ffbd 9bf7 a5bd 2fac 033d
00000210: befe 06be eccb 7a3c 4c53 d1bd 8cf8 253d
00000220: af4e 193e 4895 a6bd 5798 283e d0d0 e4bd
00000230: 1a50 2fbd 04ab a5bd 677b 9f3c fc39 803d
00000240: 0861 763b 4365 8ebc 7e50 063e 5371 05be
00000250: 1dac 273e 4ac7 82bd f9b8 c3bd d159 10be
00000260: 2bd2 fabd 5390 5dbc cba7 10bd 803d d4ba
00000270: b13e 41bd de3a c43d 46ef e5bc ff70 e23b
00000280: 16fd c53d ac86 673d 0f9e 92bd 0051 183e
00000290: adfa 313d c0a0 adbb fe17 0cbe e5e4 de3d
000002a0: e3dc 103e 47e8 033e 209b c6bd 3203 e53d
000002b0: 5143 49bd a4fd 943d e0c4 643d 70e7 f0bd
000002c0: 6ee7 f23d f550 673c bbcb 17bd 1fea e73d
000002d0: 7713 a7bc 4d74 3b3d b99e 283e f483 ef3d
000002e0: 3e9d 54bd 96f1 113e 8a17 0bbc c50d e9bc
000002f0: 839b 7fbd a41f 153e 57ba 4ebc 23ea 6b3d
00000300: f215 02be 53d9 e9bc 4596 f1bb cf64 673d
00000310: efc5 243d d02a bdbd 5a07 b7bb c3a3 02be
00000320: 08af fa3d 4070 0bbe e3a1 853d d78c 9d3d
00000330: 00ab 93ba 1b60 80bd 3a0d 8b3c 869d edbd
00000340: c49a b0bc 5976 e6bd 080e 1e3e 4f2d 02bd
00000350: da21 03be d575 fabd 5a63 ea3d 6834 b9bb
00000360: 45d8 65bd 2143 00be 8fde 073e 264e debd
00000370: 5ae7 e23d 553c 203d d747 b73d 7f07 9bbd
00000380: 202f 903c a467 4a3d 0ea1 203e f06d dbbd
00000390: 70f1 193d c947 9c3d c48b ec3d 434a 96bd
000003a0: 2984 013d 3946 1abe a6af b63d a7a8 0ebe
000003b0: 0bdf f3bd 5f7e 19be 452b 213c 2a55 123e
000003c0: ffc0 993d b30d 91bd fc13 ffbd 4266 e73d
000003d0: ca26 dbbd a97d 103e d9c7 26be ec1e 933d
000003e0: 4795 063e 35ec 0a3e e1da d1bc 6c83 c3bd
000003f0: 7052 003e 53ee 963d bb34 56bc c06a 2b3d
-0.118520305 0.042463914 -0.119564064 0.0010139346 -0.0070400983 -0.11417513 -0.118223846 -0.037240617
-0.113504075 0.052379936 0.09233624 0.065869585 -0.05700966 -9.417534e-05 -0.048358627 -0.056397513
-0.05036763 -0.022649929 0.11872472 -0.05226835 0.024914771 -0.013788044 0.12178646 -0.050805964
-0.08168499 -0.14211297 -0.10340296 -0.039225243 -0.08264122 0.15174429 0.0765014 -0.0078371465
-0.12020183 -0.14301568 0.0053260773 0.0053971857 0.053267583 -0.00599505 0.030622467 -0.015299886
-0.114442274 0.04608728 0.06316966 -0.043353677 0.040662333 -0.022629902 0.112047896 0.08233616
-0.1396634 -0.0773953 0.048269242 0.15098183 -0.001958564 0.12732734 0.05427593 -0.07802872
-0.0024878234 0.0375351 -0.1180516 0.0142240375 0.14977069 -0.054140262 -0.0034558028 0.070987016
0.06264518 -0.08877122 -0.1360767 0.061467215 -0.08129093 0.0040419996 -0.1492353 0.052782163
-0.0025786012 0.04441361 0.032862082 0.041725695 0.021559566 0.1361811 -0.14392158 -0.12171652
1.4156103e-05 -0.023410782 -0.10925487 -0.13228992 -0.13902603 -0.10368438 0.123144016 -0.0724981
0.038163528 -0.026797786 0.0697186 0.11265482 0.055090904 -0.14638685 0.021888167 -0.14634414
0.10370083 -0.12583886 -0.02890648 -0.12061633 -0.10477282 -0.13615832 -0.105620496 -0.04874432
-0.10149637 0.024716139 0.06433508 -0.05334372 -0.037169985 -0.045192048 -0.043335058 -0.09497436
-0.09473087 0.018673524 0.055650175 0.10946052 -0.102701604 0.0100411475 -0.05202288 -0.056621693
-0.14079973 0.08012538 -0.108112514 -0.07681669 0.05953701 0.05115187 -0.12346988 -0.062352523
-0.07449789 -0.1246278 -0.081038676 0.03214663 -0.13183114 0.015307408 -0.10220966 0.040520236
0.14971422 -0.08133942 0.16464363 -0.1117264 -0.042801 -0.08089259 0.019468023 0.0626106
0.0037594456 -0.01738227 0.13116643 -0.13031511 0.1637425 -0.063856676 -0.09556765 -0.14096762
-0.122471176 -0.013523179 -0.03531627 -0.0016192645 -0.047178928 0.095815405 -0.028068196 0.006910443
0.09667413 0.056524917 -0.071590535 0.14874649 0.043451954 -0.005298704 -0.13681027 0.10883502
0.14146762 0.12881576 -0.096975565 0.1118225 -0.049136464 0.072749406 0.055851817 -0.11762893
0.11860548 0.014118423 -0.037059527 0.11323952 -0.020395024 0.04576521 0.16466798 0.1169509
-0.05190777 0.14252314 -0.008489499 -0.028448949 -0.062404167 0.14562851 -0.012617669 0.057596337
-0.12703684 -0.028546011 -0.00737265 0.056492623 0.040227827 -0.092366815 -0.005585593 -0.12757783
0.12240416 -0.13617039 0.06525018 0.07692879 -0.0011266172 -0.06268331 0.01697408 -0.11602311
-0.021558173 -0.11253042 0.1543504 -0.03178149 -0.12805882 -0.12229506 0.11444731 -0.0056519993
-0.056114454 -0.12525608 0.13268493 -0.108547494 0.11079283 0.039120037 0.08949249 -0.07569789
0.017600596 0.049415246 0.15686437 -0.10714328 0.03758377 0.076308794 0.11550096 -0.07338383
0.03162018 -0.1506585 0.08920221 -0.13931523 -0.119077764 -0.14989613 0.009836976 0.142903
0.07507514 -0.07082691 -0.124549836 0.11298801 -0.10700758 0.14110436 -0.16287173 0.07183632
0.13142882 0.13566668 -0.025617065 -0.09546551 0.12531447 0.073696755 -0.013074095 0.04184985

sequential/dense_2/MatMul f4 [3, 128]
00000000: a499 8fbd dc79 313e 07ae 333e 9bec 3fbd
00000010: 3b3b 62be cf1c 1bbe 377c bebd 7534 d63d
00000020: 0cc2 733d 36c3 663d 7278 5c3e e716 14be
00000030: e4d9 e1bd 6232 b73d 83b9 43be 24cf a9bd
00000040: f226 0f3e c010 31be b089 463e d69a cd3d
00000050: 5064 073e 74ad 0cbe 7819 223c 2638 ddbd
00000060: d5fa 223e 1818 dabd 3c19 26be 05a3 ea3d
00000070: 1dea 473e 4e02 61be 4458 bfbd 865a 7a3d
00000080: c9a9 063e 7d9a 163e 80bb 573b ec6c 803d
00000090: f994 243e f0d2 ab3d 5b6d 473e 8426 4ebd
000000a0: c8a9 53be 9043 31bd 1e66 093d 4ca9 3f3d
000000b0: a4db 97bd 36a3 353e 58b6 5f3d 3edb 1ebe
000000c0: 34d9 4c3e b752 1dbe 0f04 803d 6351 8cbd
000000d0: 8c4c d03d 0865 aebd 6917 c0bc 44d6 383d
000000e0: e61a 063d ff7d a0bd cd60 54be e7e4 ff3d
000000f0: e2bb 70bd ca98 cdb9 863a 0e3e b876 a23c
00000100: 5a58 0ebd 22c6 ed3d 4db9 1c3e df8d 023e
00000110: f3c3 6a3c f8b4 e7bd 433d dd3d c2a9 68be
00000120: 5fed f33d d26d 9b3d 6881 25be 07ad 0b3e
00000130: 02b2 50be b1fe 193d 677a a33d 8e11 64be
00000140: ab78 873d 362a 82bc c46c 783d 7c32 2a3e
00000150: ad4c 173c 2587 293e 5548 f2bd 12b2 963d
00000160: b0f2 1abe 2d50 eebd 4631 ee3c 1330 4a3e
00000170: a8fa aa3d 9eb4 b7bd fd64 6dbd 575a 373e
00000180: 7638 a7bc 3d50 a03d 3c9a a23d d0da 133e
00000190: 8e16 3f3e 7458 36be 6b83 083d 7f59 9e3c
000001a0: aa6f 9a3c 0818 7dbd 26fc 513c 32f9 403d
000001b0: 3967 38be 690f 313e 5887 99bd 5fa6 ae3d
000001c0: 6367 42be a7c4 35be 593b 60be 18d0 dc3d
000001d0: 2168 693c b7c6 543d a0f8 18be 5684 553e
000001e0: ff35 acbd 68ec 06be 3aa0 13be 02bf 3abe
000001f0: bc4d afbc 2e31 51be a105 2dbe c031 77bd
00000200: 80b9 68bd d391 c9bb a682 5b3e 12d2 35be
00000210: 1f6a 383e 37f2 34be e86e cd3d ecb1 c7bd
00000220: a621 07be 1617 2a3e 4afd 113e 3495 2b3e
00000230: 8921 5f3e def3 36be 3266 093e 4c8c 2abe
00000240: 9746 4cbe 2e88 b9bd 3b73 dfbc 2d4d 00be
00000250: e154 a23d 4619 2c3e 91ec 983d 1d06 1c3e
00000260: e4ce 773d 0ca1 05be dfad 3dbe 6794 06be
00000270: 0281 ac3d 07b1 433b 5c02 9dbb 5e82 a8bd
00000280: f483 433d aa4a 103e 2638 c8bd b8f0 6dbb
00000290: e61b 043e 634a 5b3e 0406 ce3d 1007 70bd
000002a0: 5889 a5bd b066 ccbc 3150 1b3d d785 34be
000002b0: c486 52be b825 113e 8242 1f3d 43c0 68be
000002c0: 91f2 3a3e a11f 79bc c51e 553e a30c ba3d
000002d0: fc42 163e b599 12bd 8992 15be b0f2 1fbe
000002e0: a773 353e 4495 063e cdd1 803c bbd4 fabd
000002f0: ee20 81bd d18c bcbd 75ec eb3d af79 4fbe
00000300: f82e 34bd 16e1 933d 015c 0e3e b0c3 363e
00000310: c03a 423d e054 46bc ace5 2bbe 5fad fb3d
00000320: e0e3 073e 30c1 30bc 559a e63b 0837 12be
00000330: 6b97 61bd c196 01be cd03 2abe 4640 2e3e
00000340: 7e26 4fbe d18e dd3c 568b cc3d 617f 103d
00000350: 29ce 5fbd b0ee a13d 34a4 c3bd 3606 8fbd
00000360: 0c42 3fbe 6f9c 1c3e 6887 33be a96e b1bd
00000370: f536 833d da2f 66be 1379 9ebd 0c9b 953d
00000380: caf8 79bd c073 87bd 6f0d 393d 094f ebbd
00000390: cccf 18be 7c34 583d 2241 08bd af38 fe3d
000003a0: d47f 87bc 1af5 a2bc 326f d63c 41f2 2abe
000003b0: 0aae 58be e21e 8e3d fa7e 4dbe 3e24 1abe
000003c0: def1 683d dca1 1ebd 1781 5ebe c143 463e
000003d0: afbb 6d3d 5135 fd3d 1535 7a3d 554e 2abe
000003e0: 499f a33d 57aa 20be 8a6c 363e 7582 7cbd
000003f0: 463b 593e 8e6e 0c3e c64f 4fbe 9fff 0a3e
-0.070117265 0.17331642 0.17546855 -0.046856504 -0.22092907 -0.15147708 -0.09301036 0.10459224
0.05951123 0.05633851 0.21530321 -0.14461862 -0.110278875 0.08945157 -0.19113736 -0.08291462
0.139797 -0.17291546 0.19388461 0.10039298 0.1322186 -0.13738042 0.009893768 -0.10801725
0.15915997 -0.10649127 -0.16220564 0.11456875 0.19522901 -0.21973535 -0.09343007 0.061121486
0.13150705 0.1470737 0.0032918155 0.06270775 0.16072454 0.083898425 0.1947531 -0.0503297
-0.20670235 -0.043277323 0.033544652 0.046792313 -0.0741494 0.17738041 0.054617256 -0.15513322
0.20004731 -0.15363584 0.06250774 -0.06851461 0.1017085 -0.08515364 -0.023448663 0.045126215
0.032740496 -0.07836532 -0.20740052 0.124948315 -0.05877293 -0.00039214484 0.13889512 0.019832
-0.034752227 0.116100565 0.15305062 0.12749432 0.0143289445 -0.11313814 0.108027 -0.22721007
0.11910509 0.07589306 -0.16162646 0.13640223 -0.20380405 0.03759641 0.07982331 -0.22272322
0.066148125 -0.015889268 0.060650602 0.16620821 0.0092345895 0.1655546 -0.118302025 0.07358183
-0.1513164 -0.11636386 0.02907623 0.19744901 0.0834859 -0.08969997 -0.057957638 0.17905556
-0.020412665 0.07827804 0.07939574 0.14438939 0.18660948 -0.1780718 0.033328455 0.019329784
0.018852074 -0.061790496 0.0128164645 0.04711265 -0.18008126 0.17291035 -0.07496518 0.085278265
-0.18984751 -0.17750798 -0.2189764 0.10781878 0.014246018 0.05194732 -0.14938593 0.20851263
-0.084087364 -0.1317612 -0.1441659 -0.18236926 -0.021399371 -0.20428917 -0.16896679 -0.06035018
-0.05681753 -0.006151417 0.21436557 -0.17755917 0.18009232 -0.17670523 0.10030919 -0.09750733
-0.1319643 0.16610369 0.14256778 0.16756135 0.21790136 -0.17866465 0.1341789 -0.16655082
-0.19948803 -0.09059177 -0.027276626 -0.1252944 0.079263456 0.16806516 0.074669965 0.15236707
0.06050004 -0.13049716 -0.18523358 -0.13142549 0.08423044 0.0029860155 -0.004791541 -0.082279906
0.047733262 0.14090982 -0.097763345 -0.003630681 0.12901267 0.21415095 0.10059741 -0.058600485
-0.08082837 -0.024951309 0.037918273 -0.17629181 -0.20559222 0.14174545 0.038881786 -0.22729592
0.18256594 -0.015205295 0.20812519 0.090844415 0.1467399 -0.035791118 -0.1460668 -0.15619922
0.17719899 0.13142878 0.01572504 -0.12247606 -0.06305109 -0.09206546 0.1151971 -0.20261262
-0.043990105 0.07220666 0.13902284 0.17848086 0.04741931 -0.012105197 -0.16786832 0.12288927
0.13270521 -0.010788247 0.007037441 -0.14278805 -0.055076044 -0.12655164 -0.16603012 0.17016706
-0.20229527 0.02704564 0.09987514 0.035277728 -0.05463997 0.07906854 -0.09552804 -0.069836065
-0.18677539 0.1529405 -0.17532122 -0.08663685 0.064069666 -0.22479191 -0.07737937 0.073049635
-0.06102828 -0.066138744 0.045178827 -0.11489684 -0.14923018 0.052784428 -0.03326524 0.12413155
-0.016540445 -0.019892264 0.026176069 -0.16693975 -0.2116014 0.06939484 -0.20067969 -0.15052888
0.056871288 -0.03872858 -0.21728931 0.19361784 0.058040317 0.12363685 0.06108578 -0.16631444
0.079893656 -0.1568998 0.17814842 -0.06164785 0.21214017 0.13714048 -0.20245275 0.13574074
