HELLO_AI/day15_android/mnist_cnn_holl2.tflite (tflite, 4296 bytes, 4 tensors)

sequential/dense/BiasAdd/ReadVariableOp f4 [128]
0	0xbba39c76	-0.004993017
1	0xbba2c626	-0.004967469
2	0xbba37456	-0.0049882336
3	0xbba1e194	-0.004940221
4	0x00000000	0.0
5	0x3ba3badc	0.0049966406
6	0x00000000	0.0
7	0xbba25591	-0.004954048
8	0x3ba3283c	0.0049791615
9	0x00000000	0.0
10	0x3ba4026b	0.005005171
11	0xbba36fa6	-0.0049876748
12	0x3ba3d91f	0.005000248
13	0x3ba3e8b1	0.005002104
14	0xbba38671	-0.004990392
15	0x3ba1fa04	0.0049431343
16	0x3ba47c98	0.0050197355
17	0x00000000	0.0
18	0x3ba18168	0.0049287565
19	0x00000000	0.0
20	0x3ba19569	0.004931141
21	0x00000000	0.0
22	0xbba38628	-0.004990358
23	0x00000000	0.0
24	0x3ba2a914	0.0049640033
25	0xbba372bb	-0.004988042
26	0x00000000	0.0
27	0x3ba3d759	0.0050000367
28	0xbba38219	-0.004989874
29	0x00000000	0.0
30	0x3ba44a92	0.0050137723
31	0x00000000	0.0
32	0x3ba355f4	0.0049846116
33	0x3ba2c938	0.004967835
34	0xbba0c066	-0.004905748
35	0xbba37d0a	-0.004989271
36	0x3ba2ab7a	0.0049642893
37	0x00000000	0.0
38	0xbba13be9	-0.004920472
39	0xbba39452	-0.0049920464
40	0x3ba3e481	0.005001605
41	0x3ba0dc9c	0.004909111
42	0x00000000	0.0
43	0xbba383ac	-0.0049900617
44	0x00000000	0.0
45	0x00000000	0.0
46	0xbba30d89	-0.0049759788
47	0xbba37f3a	-0.004989532
48	0x00000000	0.0
49	0x00000000	0.0
50	0x00000000	0.0
51	0xbba36a10	-0.004987009
52	0x00000000	0.0
53	0x00000000	0.0
54	0xbba22f6b	-0.0049495003
55	0x3ba12f79	0.0049189893
56	0x00000000	0.0
57	0xbba37576	-0.0049883677
58	0x3ba3cf1b	0.004999054
59	0x3ba3ee16	0.0050027473
60	0x3ba2408b	0.004951542
61	0x00000000	0.0
62	0x00000000	0.0
63	0x3b9c7f6b	0.0047759316
64	0x3ba1da5e	0.0049393615
65	0x3ba2ac7a	0.0049644085
66	0x00000000	0.0
67	0x00000000	0.0
68	0x3ba47c64	0.0050197113
69	0xbba2b27a	-0.0049651237
70	0xbb9f622b	-0.0048639975
71	0xbba1bdd8	-0.004935961
72	0x3ba4754c	0.0050188657
73	0xbaa15142	-0.0012307542
74	0x3ba3bdc8	0.004996989
75	0xbba0fb60	-0.0049127787
76	0x3ba45411	0.0050149043
77	0x3ba3c9c0	0.0049984157
78	0x3ba3c746	0.0049981205
79	0xbba0de2d	-0.004909298
80	0x3ba3c786	0.0049981503
81	0x00000000	0.0
82	0xbba3846f	-0.0049901525
83	0xbba295ff	-0.0049617286
84	0xbba377e4	-0.0049886573
85	0x3ba3c9bc	0.004998414
86	0x00000000	0.0
87	0x3ba42c54	0.005010167
88	0xbba380f4	-0.0049897376
89	0x3ba43303	0.005010964
90	0xbba2f0c6	-0.00497255
91	0xbba2a437	-0.0049634236
92	0x00000000	0.0
93	0x00000000	0.0
94	0x00000000	0.0
95	0xbba37b28	-0.0049890466
96	0x3ba3f981	0.0050041084
97	0x3ba2aa20	0.004964128
98	0x3ba41c5c	0.0050082635
99	0xbba36ec4	-0.0049875695
100	0x3ba2a028	0.00496294
101	0xbba1dcfd	-0.004939674
102	0x3ba3db23	0.0050004884
103	0x3ba457f6	0.0050153686
104	0x3ba3f5b2	0.0050036544
105	0x3ba12502	0.0049177418
106	0x3ba3d0d4	0.0049992595
107	0x3ba3ce2b	0.0049989424
108	0x3ba3d4c6	0.00499973
109	0x3ba3e1e6	0.0050012944
110	0x3ba3d24e	0.0049994355
111	0x00000000	0.0
112	0xbba35174	-0.004984075
113	0x3ba3e197	0.0050012576
114	0x00000000	0.0
115	0xbba2d198	-0.004968833
116	0xbba36b3c	-0.0049871486
117	0xbba3303e	-0.004980116
118	0x3ba40172	0.005005055
119	0x00000000	0.0
120	0xbba2db36	-0.0049699796
121	0x3ba3b4d0	0.0049959198
122	0x3b9f7ca7	0.0048671546
123	0xbba33f64	-0.004981922
124	0x3ba30514	0.0049749706
125	0x3ba3b6aa	0.0049961405
126	0xbba0ec2a	-0.0049109655
127	0xbba35cb2	-0.0049854154

sequential/dense_1/BiasAdd/ReadVariableOp f4 [2]
0	0x3ba27e78	0.004958924
1	0xbba27e78	-0.004958924

sequential/dense/MatMul f4 [128, 2]
0	0xbe5069c7	-0.20352851
1	0x3d03e0d5	0.03219684
2	0x3e23327f	0.15937231
3	0x3e52bbec	0.20579499
4	0x3e417389	0.1889173
5	0xbd509958	-0.05092749
6	0xbd128128	-0.035767704
7	0x3d4f483b	0.050605994
8	0xbcbef6e0	-0.023311079
9	0xbdd5f4f6	-0.10447113
10	0x3e42fb3e	0.19041154
11	0xbdb4ba8a	-0.08824642
12	0xbe58162c	-0.21102208
13	0xbe4b1246	-0.1983119
14	0x3ddd87c0	0.10816908
15	0x3cbb04a6	0.022829365
16	0x3d8c64d0	0.06855166
17	0x3cc4b705	0.024013052
18	0xbbb16aa0	-0.005414322
19	0xbd955d42	-0.07293178
20	0xbe3032fe	-0.17206952
21	0x3d141b8d	0.036159087
22	0xbd76d930	-0.06026572
23	0x3d197138	0.03746149
24	0x3e47ad18	0.19499624
25	0xbdca3253	-0.0987288
26	0x3ce522a5	0.027970621
27	0xbbb63ae0	-0.0055612177
28	0xbddd3771	-0.1080159
29	0x3dbbd7f8	0.09172052
30	0x3dec02c8	0.11523968
31	0x3e3927e0	0.18081617
32	0x3e186798	0.14883268
33	0xbe315429	-0.17317261
34	0xbe4269de	-0.18985698
35	0xbcf97d38	-0.030455217
36	0x3d9f92d2	0.077916756
37	0x3db5b9d3	0.08873334
38	0xbe0e3490	-0.13887239
39	0xbd7e075c	-0.062018737
40	0x3c9b46c1	0.018954637
41	0x3db7b128	0.08969337
42	0xbb892b80	-0.004186094
43	0xbdd664a6	-0.10468416
44	0x3e4d07f3	0.20022564
45	0xbb574540	-0.0032847673
46	0xba9e9180	-0.0012097806
47	0xbe0fb3cc	-0.14033431
48	0x3e4a80dc	0.19775718
49	0x3e148f46	0.1450778
50	0xbd98025e	-0.074223265
51	0x3e2ccec5	0.16875751
52	0xbc261430	-0.010136649
53	0xbe273b61	-0.16331245
54	0xbe4e1f63	-0.2012916
55	0x3c3b534d	0.011433435
56	0x3e0bd3ba	0.13654986
57	0xbe5ac018	-0.2136234
58	0xbe4ab6c2	-0.19796279
59	0xbe4e35be	-0.20137689
60	0xbcfb3648	-0.030665532
61	0x3e2eb9ff	0.1706314
62	0xbe3baee2	-0.18328431
63	0xbd264120	-0.04058945
64	0x3e1f6c00	0.15568542
65	0xbe560705	-0.20901115
66	0x3e3f8a58	0.18705118
67	0x3c9a07b7	0.018802507
68	0x3e40fb14	0.18845779
69	0x3d11ad05	0.035565395
70	0x3ddfd3a1	0.10929037
71	0xbddce944	-0.107866794
72	0x3e21a643	0.1578608
73	0x3d3feb8a	0.046855487
74	0xbe451f43	-0.19250207
75	0xbe16c52c	-0.14723653
76	0x3e107017	0.14105259
77	0x3e1e5b0e	0.15464422
78	0xbd90f622	-0.07078196
79	0x3c859a32	0.016308878
80	0xbe3204ea	-0.17384687
81	0x3d4027ed	0.046913076
82	0x3db2764e	0.08713971
83	0x3e184384	0.14869505
84	0xbce8f518	-0.028437182
85	0xbd4183f8	-0.047244996
86	0x3df26df7	0.118373804
87	0xbe2e55a2	-0.17024854
88	0xbdb660e0	-0.08905196
89	0xbe1fa86b	-0.1559159
90	0xbce7a488	-0.028276697
91	0xbd6a97e8	-0.057273775
92	0x3d2916e2	0.04128159
93	0xbdb6a43a	-0.089180425
94	0x3dd0e39a	0.101996616
95	0xbd9a35e0	-0.07529807
96	0xbe50c68f	-0.20388244
97	0xbe5b7b3e	-0.21433732
98	0xbd093804	-0.033500686
99	0xbdfc51e0	-0.12320304
100	0xbe244e90	-0.16045594
101	0xbe13c66a	-0.14431158
102	0x3df0a9ad	0.11751113
103	0xbdb7740c	-0.08957681
104	0xbc890a28	-0.016728476
105	0xbd8fe3fa	-0.07025905
106	0xbc87a060	-0.016555965
107	0xbbda79a0	-0.006667331
108	0x3ddecb89	0.10878665
109	0x3c6e0c82	0.014529349
110	0x3bfd26f9	0.007725593
111	0x3dbe9ec6	0.093076274
112	0xbe448ac2	-0.19193557
113	0xbe167c52	-0.14695862
114	0xbd9dc004	-0.0770264
115	0x3d854b3a	0.06508489
116	0xbe32d169	-0.17462696
117	0x3e37a688	0.1793462
118	0xbe466fe4	-0.1937862
119	0x3c47fb6b	0.012205939
120	0x3da07b2e	0.07835995
121	0x3e1d6499	0.15370406
122	0xbe2fb70c	-0.1715967
123	0xbde63896	-0.11241262
124	0xbe31a74d	-0.17348976
125	0xbe52b775	-0.20577796
126	0x3e2ecb3f	0.1706972
127	0x3e393f1c	0.1809048
128	0x3daa0586	0.08301835
129	0x3ddb10a1	0.10696531
130	0x3e4867e0	0.19570875
131	0x3dc88ded	0.09792695
132	0xbdd768bb	-0.105180226
133	0xbe4226c2	-0.18960097
134	0xbdf16e52	-0.1178862
135	0xbe16ffe8	-0.14746058
136	0xbdb5fd1c	-0.088861674
137	0x3db8fec8	0.09032971
138	0x3ded9e1c	0.116024226
139	0x3e3644ec	0.17799729
140	0x3d8318e7	0.06401234
141	0xbcca9000	-0.024726868
142	0x3de0ebec	0.109824985
143	0x3d557667	0.05211487
144	0xbdac0426	-0.08399229
145	0x3e0f3ef5	0.1398886
146	0x3da9f3e8	0.082984746
147	0x3dd8b735	0.10581819
148	0x3e1f84c4	0.1557799
149	0xbdadb3d6	-0.084815666
150	0x3cb4c149	0.022064822
151	0xbd8283a6	-0.06372766
152	0x3e49cf7d	0.19708057
153	0xbdee61c5	-0.11639742
154	0xbe2174e4	-0.15767246
155	0x3c7251f0	0.014790043
156	0x3e3288d1	0.17435004
157	0xbd80ce54	-0.06289354
158	0x3dc8549b	0.09781762
159	0xbd1db05c	-0.038498268
160	0xbd92eefe	-0.071744904
161	0x3e0fdc29	0.14048828
162	0xbe4346bf	-0.19069956
163	0xbd691850	-0.05690795
164	0xbb6e4e00	-0.003636241
165	0x3b4872a2	0.0030585905
166	0x3ce95d12	0.028486762
167	0xbd137604	-0.03600122
168	0xbe2bc04e	-0.16772577
169	0x3d056fef	0.03257745
170	0xbe4d457e	-0.2004604
171	0x3e59ecdf	0.21281765
172	0xbce91ec0	-0.028457046
173	0xbe3785ec	-0.17922181
174	0xbdb9aa7d	-0.09065721
175	0x3e2a5640	0.16634464
176	0x3d2ca655	0.042150814
177	0xbb6bc8c0	-0.003597781
178	0xbe4dd900	-0.2010231
179	0x3d90209f	0.07037472
180	0x3da720b7	0.08160537
181	0x3e01f544	0.12691218
182	0x3d983ae2	0.07433106
183	0x3dce7274	0.10080424
184	0xbd2bc754	-0.04193814
185	0xbe4bf9f6	-0.19919571
186	0xbe225863	-0.1585403
187	0xbd9b48c8	-0.07582241
188	0xbe46bad1	-0.19407202
189	0xbdac9742	-0.08427288
190	0xbe57d13c	-0.2107591
191	0x3e0dd7b5	0.13851817
192	0x3df0f786	0.11765961
193	0xbd8d486e	-0.068985805
194	0x3e1e1f30	0.15441585
195	0x3ddb56ca	0.10709913
196	0xbdba21b2	-0.09088458
197	0x3d390a1f	0.045175668
198	0xbd640800	-0.055671692
199	0x3e5665cd	0.20937271
200	0x3d744bb4	0.05964251
201	0x3ba98698	0.0051735155
202	0x3e4f0b93	0.20219259
203	0x3e06693f	0.13126086
204	0xbd3e3f58	-0.046447128
205	0x3e5785c2	0.21047118
206	0xbdea54b6	-0.114419386
207	0x3e4ebba7	0.20188771
208	0x3e2e0260	0.16993093
209	0xbd25d45c	-0.040485725
210	0x3d42c66d	0.047552515
211	0x3d7b9761	0.061423663
212	0xbe11483c	-0.14187711
213	0x3e21080c	0.15725726
214	0x3e356284	0.17713362
215	0xbdc0d707	-0.09416013
216	0x3d9a7bb6	0.07543127
217	0xbcb26548	-0.02177681
218	0xbd3f23f0	-0.046665132
219	0x3dc4dc48	0.09612328
220	0xbde61c1f	-0.112358324
221	0x3d6a260e	0.057165198
222	0xbd1ab690	-0.03777176
223	0xbdfc8b1a	-0.12331219
224	0x3d6f549e	0.058430307
225	0xbc8df6e8	-0.017329648
226	0xbcd868f8	-0.02641724
227	0x3d9905a8	0.07471782
228	0xbdf3bdd7	-0.119014435
229	0xbd4bf458	-0.04979357
230	0x3e286fd3	0.16448908
231	0xbe23cbee	-0.15995762
232	0x3de0cf6d	0.10977063
233	0xbe1d46d3	-0.15359049
234	0x3c2f33e0	0.01069352
235	0xbb9e0c40	-0.0048232377
236	0xbd27a5b4	-0.04092951
237	0x3dca1bee	0.098686084
238	0xbe1cefac	-0.15325803
239	0xbd55101c	-0.052017316
240	0x3e2dc13a	0.16968241
241	0x3e5332b3	0.20624809
242	0x3e26b17a	0.1627864
243	0xbe5392a1	-0.20661403
244	0x3df3180a	0.118698195
245	0x3e1be9ef	0.15225957
246	0x3d69db38	0.05709383
247	0xbe34776a	-0.17623678
248	0x3d88ffc3	0.06689408
249	0x3bd68e6b	0.0065477393
250	0x3d946da9	0.072474785
251	0xbdbc2dcf	-0.09188425
252	0x3e0f2d30	0.13982081
253	0xbe1a783b	-0.15084927
254	0x3c0b2fb7	0.008495263
255	0xbe2e60d8	-0.1702913

sequential/dense_1/MatMul f4 [2, 128]
0	0x3e55159a	0.20809022
1	0xbe59374c	-0.212125
2	0xbdc75fb0	-0.09735048
3	0x3cc1bc4a	0.023649354
4	0xbe472503	-0.19447713
5	0x3e41930c	0.1890375
6	0x3dc9f4d2	0.09861149
7	0xbe512a5a	-0.20426312
8	0x3cb50f59	0.022102045
9	0x3e44fe49	0.19237627
10	0xbd7dd635	-0.061971862
11	0xbbace308	-0.0052760877
12	0x3dd581d0	0.104251504
13	0x3e00655b	0.12538664
14	0x3cd6aed5	0.026206413
15	0x3d91aaa1	0.07112623
16	0x3cc1aa4f	0.02364078
17	0xbd049484	-0.032368198
18	0xbba16825	-0.004925745
19	0xbe56b083	-0.20965771
20	0x3dca50ef	0.09878718
21	0xbdf6b6f8	-0.12046617
22	0xbe49b8ba	-0.19699374
23	0xba013600	-0.0004929006
24	0x3e2a02a3	0.16602568
25	0x3d92fd5a	0.07177229
26	0x3d07603c	0.03305076
27	0xbdf05070	-0.11734092
28	0xbd818851	-0.063248284
29	0xbe1f3363	-0.15546946
30	0x3bf0e548	0.007351551
31	0xbe15fa28	-0.14646208
32	0x3e19dc09	0.15025343
33	0x3d84429f	0.064580195
34	0x3de07682	0.109601036
35	0xbe2b05f7	-0.16701494
36	0x3e207d4d	0.15672798
37	0xbdf84811	-0.121231206
38	0xbc55ce5b	-0.013049687
39	0x3de65f8c	0.11248693
40	0xbe199de0	-0.15001631
41	0x3e3bc77b	0.18337815
42	0xbe0ed0ee	-0.13946888
43	0xbe06b526	-0.1315504
44	0x3e4407d3	0.1914361
45	0x3e3925cd	0.18080826
46	0xbe35a34f	-0.17738079
47	0xbd8d1163	-0.06888082
48	0x3e27c75f	0.16384648
49	0xbca60970	-0.020268172
50	0xbe214985	-0.15750702
51	0xbd60413b	-0.05474971
52	0xbcf3cd80	-0.029761076
53	0xbe1b8f92	-0.15191486
54	0xbde18a51	-0.1101271
55	0x3e156031	0.14587475
56	0xbe47abed	-0.19499178
57	0x3c9602d7	0.018311901
58	0xbe123639	-0.14278497
59	0x3cf96eb2	0.030448291
60	0x3e41c0f1	0.18921258
61	0xbe345057	-0.17608772
62	0xbcaf5528	-0.02140291
63	0xbd38b85c	-0.045097694
64	0xbcbe85bd	-0.02325713
65	0x3e5dcdbb	0.21660511
66	0x3c57cf80	0.01317203
67	0xbe1a9a0e	-0.1509783
68	0xbe2eab37	-0.17057501
69	0xbdeb4551	-0.114878304
70	0xbdd9c626	-0.10633497
71	0x3df5958b	0.11991414
72	0xbd2236a6	-0.039602898
73	0x3e3532ee	0.1769521
74	0x3e3ba88e	0.18326017
75	0xbdf0e62e	-0.11762653
76	0x3e38fd74	0.18065435
77	0xbe37c054	-0.17944461
78	0x3e0f68f3	0.14004879
79	0xbd81f3f5	-0.06345359
80	0xbe4ad997	-0.19809566
81	0xbd937142	-0.071993366
82	0x3e53064e	0.20607874
83	0xbd55694a	-0.052102365
84	0x3e4dedb8	0.20110214
85	0xbe35a4f5	-0.17738707
86	0xb9b07600	-0.00033657253
87	0x3de8deb5	0.11370603
88	0xbe201698	-0.15633619
89	0x3de44cdf	0.111474745
90	0x3d9f6cb0	0.07784402
91	0xbe485572	-0.19563845
92	0x3e0b686d	0.13614054
93	0x3e4e366b	0.20137946
94	0x3c8059f8	0.0156679
95	0x3e32c30e	0.1745722
96	0xbc67bd21	-0.014144213
97	0x3e30fde8	0.17284358
98	0xbe2f152e	-0.17097923
99	0x3d7e16d7	0.0620335
100	0x3e52beb8	0.20580566
101	0xbe16b81c	-0.1471867
102	0xbe1b5e8a	-0.15172783
103	0x3e1afa47	0.15134536
104	0x3d964a07	0.07338338
105	0xbe042ff7	-0.12908922
106	0xbdaeb274	-0.08530131
107	0xbd26bd35	-0.040707786
108	0x3e2f76c8	0.17135155
109	0x3cff5330	0.031167597
110	0xbe31259a	-0.172995
111	0x3e30414f	0.17212413
112	0xbdc3cc13	-0.095604084
113	0xbe5f7215	-0.21820863
114	0x3df2b15a	0.118502334
115	0xbe1b84cf	-0.15187381
116	0xbe3fd086	-0.18731889
117	0x3caba0da	0.020950723
118	0xbe06c218	-0.13159978
119	0xbe3df6e9	-0.1855122
120	0xbdcaffeb	-0.09912094
121	0x3e5ca954	0.21548969
122	0x3dcb1f1e	0.099180445
123	0xbde0dcc4	-0.10979608
124	0x3df7494c	0.12074527
125	0x3e360e79	0.17778958
126	0x3d942b2a	0.072347954
127	0x3c3cf99d	0.011534122
128	0xbe0dd2c9	-0.1384994
129	0xbdd2c5ad	-0.1029161
130	0x3dbb15f4	0.091350466
131	0x3bd9db59	0.0066484627
132	0xbd5aedf8	-0.0534496
133	0xbdfecaa6	-0.12440996
134	0x3e3bb8df	0.18332241
135	0x3e1c0d55	0.15239461
136	0x39be83ec	0.00036337913
137	0xbe1de223	-0.15418296
138	0x3cfe6a7b	0.031056633
139	0xbe017f5b	-0.12646239
140	0xbd127a1f	-0.035760995
141	0x3c899e86	0.016799223
142	0xbe1ec3ec	-0.15504426
143	0xbd360799	-0.04444084
144	0xba0b3fcc	-0.00053119357
145	0xbd1f4ff4	-0.03889461
146	0xbd83b5a3	-0.06431129
147	0x3e5188f1	0.20462395
148	0x3d0a7371	0.0338015
149	0xbe0642a8	-0.13111365
150	0x3de65507	0.112466864
151	0xbe362644	-0.17788035
152	0x3e17db6f	0.14829801
153	0xbd629335	-0.05531617
154	0xbe28e2ac	-0.16492718
155	0x3dc1e61a	0.094677165
156	0x3e53bfca	0.2067863
157	0x3dd64f2a	0.10464318
158	0x3d547156	0.051865898
159	0xbd45c150	-0.04828006
160	0x3e0a439f	0.13502358
161	0xbd211f6d	-0.03933661
162	0x3e115de4	0.14195973
163	0x3d873931	0.06602705
164	0xbcd97af6	-0.02654789
165	0xbe21adf4	-0.15789014
166	0x3d04ee8f	0.03245407
167	0xbe15025a	-0.14551678
168	0x3b6a8451	0.0035784433
169	0x3e182867	0.14859162
170	0x3cdf62c8	0.027268782
171	0x3e1c1351	0.15241744
172	0x3cc89e50	0.024489552
173	0x3d9ca64a	0.076489046
174	0xbdf4b7ad	-0.11949096
175	0x3e370796	0.17873988
176	0x3d6c04cc	0.057621762
177	0xbd09ee84	-0.03367473
178	0x3dae97da	0.08525057
179	0x3dcb59d0	0.0992924
180	0xbdb35cd0	-0.08757937
181	0x3e5398b9	0.20663728
182	0x3da78798	0.08180159
183	0x3dd010ca	0.10159452
184	0x3dfdb78e	0.12388526
185	0xbde9c593	-0.114146374
186	0x3e0b8858	0.1362623
187	0x3e2158d3	0.1575654
188	0xbd5a0186	-0.05322411
189	0x3e3f414f	0.18677257
190	0x3b19b500	0.0023453832
191	0xbd541c12	-0.051784582
192	0xbdee1ba2	-0.11626364
193	0x3d1b1716	0.037863813
194	0x3dc6d212	0.097080365
195	0xbe5b3c04	-0.21409613
196	0xbe149565	-0.14510114
197	0x3d28b57e	0.04118871
198	0xbdcdd5d4	-0.1005055
199	0x3e4bc982	0.19901088
200	0xbc1b71c4	-0.009487573
201	0x3e3e63b0	0.18592715
202	0xbdc6dfb5	-0.097106375
203	0xbdd9d7a8	-0.10636836
204	0x3e117848	0.1420604
205	0x3e2e9d47	0.17052184
206	0xbd8c17b9	-0.06840462
207	0xbd5834d3	-0.052784752
208	0x3e4561e3	0.19275622
209	0x3dc7c68e	0.09754668
210	0x3d191678	0.037374943
211	0xbca77b86	-0.020444643
212	0x3d822402	0.06354524
213	0x3e30b2c0	0.17255688
214	0x3dde673e	0.10859536
215	0x3e30074a	0.1719028
216	0x3dd4d155	0.103914894
217	0x3e2a301a	0.16619912
218	0x3e11b644	0.14229685
219	0x3ce54d64	0.027991004
220	0xbe1a4060	-0.1506362
221	0xbcb743a8	-0.022371128
222	0xbd8742dc	-0.06604549
223	0x3cec90ac	0.028877579
224	0xbdceb13d	-0.10092399
225	0xbc8b0df0	-0.01697442
226	0xbdd2370c	-0.102644056
227	0xbd6cfbfb	-0.057857495
228	0xbd4c7af1	-0.049921934
229	0xbd571fa0	-0.052520394
230	0x3d227f91	0.039672438
231	0x3e43b215	0.19110902
232	0xbc8fa2f5	-0.017533759
233	0xbe2ff540	-0.17183399
234	0x3e34f0c6	0.17669973
235	0xbe5d6203	-0.2161942
236	0x3c9ba060	0.018997371
237	0x3e464cdc	0.19365257
238	0x3d9bc915	0.07606713
239	0x3db6bad6	0.08922355
240	0x3c39a421	0.011330635
241	0xbd5f7920	-0.054558873
242	0xbe347835	-0.1762398
243	0xbde2dff0	-0.11077869
244	0xbcf5c1de	-0.02999967
245	0x3dc4dc6a	0.09612353
246	0xbd195122	-0.03743089
247	0x3bee49e0	0.00727199
248	0xbc8ff7f0	-0.01757428
249	0xbe4bd188	-0.19904149
250	0x3da8471a	0.082166865
251	0xbcb7e834	-0.02244959
252	0x3d8ae5e8	0.067821324
253	0xbe4c94b2	-0.19978598
254	0x3daa92ea	0.08328803
255	0x3e09c7aa	0.13455072
